exampleLoihi/01_Oxford/Trained/oxfordNet.pt (torch_old, 411608 bytes, 4 tensors)

slayer.srmKernel f4 [110]
00000000: 0000 8042 0000 dc42 0080 0e43 0000 2543
00000010: 0080 3343 0080 3c43 0080 4143 0000 4343
00000020: 0080 4243 0080 4043 0000 3d43 0000 3943
00000030: 0080 3443 0080 2f43 0080 2a43 0000 2543
00000040: 0080 1f43 0080 1a43 0080 1543 0080 1043
00000050: 0080 0b43 0000 0743 0080 0243 0000 fc42
00000060: 0000 f442 0000 ec42 0000 e442 0000 dc42
00000070: 0000 d542 0000 ce42 0000 c742 0000 c042
00000080: 0000 ba42 0000 b442 0000 ae42 0000 a842
00000090: 0000 a242 0000 9c42 0000 9742 0000 9242
000000a0: 0000 8d42 0000 8842 0000 8342 0000 7c42
000000b0: 0000 7442 0000 6c42 0000 6442 0000 5c42
000000c0: 0000 5442 0000 4c42 0000 4442 0000 3c42
000000d0: 0000 3642 0000 3042 0000 2a42 0000 2442
000000e0: 0000 1e42 0000 1842 0000 1242 0000 0c42
000000f0: 0000 0642 0000 0042 0000 f841 0000 f041
00000100: 0000 e841 0000 e041 0000 d841 0000 d041
00000110: 0000 c841 0000 c041 0000 b841 0000 b041
00000120: 0000 a841 0000 a041 0000 9841 0000 9041
00000130: 0000 8841 0000 8041 0000 7841 0000 7041
00000140: 0000 6841 0000 6041 0000 5841 0000 5041
00000150: 0000 4841 0000 4041 0000 3841 0000 3041
00000160: 0000 2841 0000 2041 0000 1841 0000 1041
00000170: 0000 0841 0000 0041 0000 f040 0000 e040
00000180: 0000 d040 0000 c040 0000 b040 0000 a040
00000190: 0000 9040 0000 8040 0000 6040 0000 4040
000001a0: 0000 2040 0000 0040 0000 c03f 0000 803f
000001b0: 0000 003f 0000 0000
64.0 110.0 142.5 165.0 179.5 188.5 193.5 195.0
194.5 192.5 189.0 185.0 180.5 175.5 170.5 165.0
159.5 154.5 149.5 144.5 139.5 135.0 130.5 126.0
122.0 118.0 114.0 110.0 106.5 103.0 99.5 96.0
93.0 90.0 87.0 84.0 81.0 78.0 75.5 73.0
70.5 68.0 65.5 63.0 61.0 59.0 57.0 55.0
53.0 51.0 49.0 47.0 45.5 44.0 42.5 41.0
39.5 38.0 36.5 35.0 33.5 32.0 31.0 30.0
29.0 28.0 27.0 26.0 25.0 24.0 23.0 22.0
21.0 20.0 19.0 18.0 17.0 16.0 15.5 15.0
14.5 14.0 13.5 13.0 12.5 12.0 11.5 11.0
10.5 10.0 9.5 9.0 8.5 8.0 7.5 7.0
6.5 6.0 5.5 5.0 4.5 4.0 3.5 3.0
2.5 2.0 1.5 1.0 0.5 0.0

slayer.refKernel f4 [181]
00000000: 0000 0000 0000 20c6 0000 1bc6 0028 16c6
00000010: 0070 11c6 00e0 0cc6 0078 08c6 0030 04c6
00000020: 0008 00c6 0000 f8c5 0040 f0c5 00b0 e8c5
00000030: 0060 e1c5 0050 dac5 0070 d3c5 00d0 ccc5
00000040: 0060 c6c5 0020 c0c5 0010 bac5 0030 b4c5
00000050: 0080 aec5 0000 a9c5 00b0 a3c5 0090 9ec5
00000060: 0090 99c5 00c0 94c5 0010 90c5 0080 8bc5
00000070: 0020 87c5 00e0 82c5 0080 7dc5 0080 75c5
00000080: 00c0 6dc5 0040 66c5 0000 5fc5 0000 58c5
00000090: 0040 51c5 00a0 4ac5 0040 44c5 0000 3ec5
000000a0: 0000 38c5 0040 32c5 00a0 2cc5 0020 27c5
000000b0: 00e0 21c5 00c0 1cc5 00c0 17c5 0000 13c5
000000c0: 0060 0ec5 00e0 09c5 0080 05c5 0040 01c5
000000d0: 0040 fac4 0040 f2c4 0080 eac4 0000 e3c4
000000e0: 00c0 dbc4 00c0 d4c4 0000 cec4 0080 c7c4
000000f0: 0040 c1c4 0000 bbc4 0000 b5c4 0040 afc4
00000100: 00c0 a9c4 0040 a4c4 0000 9fc4 0000 9ac4
00000110: 0000 95c4 0040 90c4 0080 8bc4 0000 87c4
00000120: 00c0 82c4 0000 7dc4 0000 75c4 0000 6dc4
00000130: 0080 65c4 0000 5ec4 0000 57c4 0000 50c4
00000140: 0080 49c4 0000 43c4 0080 3cc4 0080 36c4
00000150: 0080 30c4 0080 2ac4 0000 25c4 0080 1fc4
00000160: 0080 1ac4 0080 15c4 0080 10c4 0080 0bc4
00000170: 0000 07c4 0080 02c4 0000 fcc3 0000 f4c3
00000180: 0000 ecc3 0000 e4c3 0000 dcc3 0000 d5c3
00000190: 0000 cec3 0000 c7c3 0000 c0c3 0000 bac3
000001a0: 0000 b4c3 0000 aec3 0000 a8c3 0000 a2c3
000001b0: 0000 9cc3 0000 97c3 0000 92c3 0000 8dc3
000001c0: 0000 88c3 0000 83c3 0000 7cc3 0000 74c3
000001d0: 0000 6cc3 0000 64c3 0000 5cc3 0000 54c3
000001e0: 0000 4cc3 0000 44c3 0000 3cc3 0000 36c3
000001f0: 0000 30c3 0000 2ac3 0000 24c3 0000 1ec3
00000200: 0000 18c3 0000 12c3 0000 0cc3 0000 06c3
00000210: 0000 00c3 0000 f8c2 0000 f0c2 0000 e8c2
00000220: 0000 e0c2 0000 d8c2 0000 d0c2 0000 c8c2
00000230: 0000 c0c2 0000 b8c2 0000 b0c2 0000 a8c2
00000240: 0000 a0c2 0000 98c2 0000 90c2 0000 88c2
00000250: 0000 80c2 0000 78c2 0000 70c2 0000 68c2
00000260: 0000 60c2 0000 58c2 0000 50c2 0000 48c2
00000270: 0000 40c2 0000 38c2 0000 30c2 0000 28c2
00000280: 0000 20c2 0000 18c2 0000 10c2 0000 08c2
00000290: 0000 00c2 0000 f0c1 0000 e0c1 0000 d0c1
000002a0: 0000 c0c1 0000 b0c1 0000 a0c1 0000 90c1
000002b0: 0000 80c1 0000 60c1 0000 40c1 0000 20c1
000002c0: 0000 00c1 0000 c0c0 0000 80c0 0000 00c0
000002d0: 0000 0000
0.0 -10240.0 -9920.0 -9610.0 -9308.0 -9016.0 -8734.0 -8460.0
-8194.0 -7936.0 -7688.0 -7446.0 -7212.0 -6986.0 -6766.0 -6554.0
-6348.0 -6148.0 -5954.0 -5766.0 -5584.0 -5408.0 -5238.0 -5074.0
-4914.0 -4760.0 -4610.0 -4464.0 -4324.0 -4188.0 -4056.0 -3928.0
-3804.0 -3684.0 -3568.0 -3456.0 -3348.0 -3242.0 -3140.0 -3040.0
-2944.0 -2852.0 -2762.0 -2674.0 -2590.0 -2508.0 -2428.0 -2352.0
-2278.0 -2206.0 -2136.0 -2068.0 -2002.0 -1938.0 -1876.0 -1816.0
-1758.0 -1702.0 -1648.0 -1596.0 -1546.0 -1496.0 -1448.0 -1402.0
-1358.0 -1314.0 -1272.0 -1232.0 -1192.0 -1154.0 -1116.0 -1080.0
-1046.0 -1012.0 -980.0 -948.0 -918.0 -888.0 -860.0 -832.0
-806.0 -780.0 -754.0 -730.0 -706.0 -682.0 -660.0 -638.0
-618.0 -598.0 -578.0 -558.0 -540.0 -522.0 -504.0 -488.0
-472.0 -456.0 -440.0 -426.0 -412.0 -398.0 -384.0 -372.0
-360.0 -348.0 -336.0 -324.0 -312.0 -302.0 -292.0 -282.0
-272.0 -262.0 -252.0 -244.0 -236.0 -228.0 -220.0 -212.0
-204.0 -196.0 -188.0 -182.0 -176.0 -170.0 -164.0 -158.0
-152.0 -146.0 -140.0 -134.0 -128.0 -124.0 -120.0 -116.0
-112.0 -108.0 -104.0 -100.0 -96.0 -92.0 -88.0 -84.0
-80.0 -76.0 -72.0 -68.0 -64.0 -62.0 -60.0 -58.0
-56.0 -54.0 -52.0 -50.0 -48.0 -46.0 -44.0 -42.0
-40.0 -38.0 -36.0 -34.0 -32.0 -30.0 -28.0 -26.0
-24.0 -22.0 -20.0 -18.0 -16.0 -14.0 -12.0 -10.0
-8.0 -6.0 -4.0 -2.0 0.0

fc1.weight f4 [256, 200, 1, 1, 1]
00000000: 7ecf e540 8e6e 9c3f e83b a1c0 2ce9 3bc0
00000010: 09ea 8cc0 8992 f540 c33f 3b3f b732 5e3f
00000020: 0594 8340 8535 aac0 08e1 85c0 1476 74c0
00000030: b407 bd3f c7c8 593e f920 d1c0 db8a 26c0
00000040: 6ee2 fe40 5754 ddbf b1a9 0b40 9b4c a240
00000050: d7eb 60c0 68c2 8f40 d35b 72c0 a552 6bc0
00000060: d921 ae40 751d 4040 9335 40c0 4513 20bf
00000070: 602e 8d3f 4d02 d140 f99b 873f 0f67 1ac0
00000080: 7381 df3d 2718 5a40 dd34 9340 fcbd f640
00000090: 590d 24c0 2a38 38c0 48c8 2fc0 d3fe 0d40
000000a0: bbfd 8540 b011 95c0 820a 0f40 bb66 ebbf
000000b0: 2d06 bb40 571d a840 e7d5 6abf 5028 10bf
000000c0: f52b b440 a9ec eec0 429f 9bc0 26b1 143f
000000d0: 5a04 1b3f 936b 8fc0 59a6 0c40 8549 873f
000000e0: 5912 24bf 536e 1fc0 f450 993f b19a c040
000000f0: 2285 87c0 ac76 2cbf ebc6 fd3e 6624 f340
00000100: 7231 5d40 ab11 cabf 968c 4840 e51a 933f
00000110: c081 53c0 04a5 c140 9f7b 563e d968 a53f
00000120: 4d95 95c0 5435 5840 7e10 dcc0 4323 06c0
00000130: ddf7 fc40 1886 2740 c568 c740 ec4b 9740
00000140: d3b7 87bf 562c 9ebf 67e2 15c0 1a9a ad3e
00000150: fe6e 0641 25ec 9140 f45d b4c0 f289 673e
00000160: 7a6a a03d 218a b5c0 a727 f33f 8cbf 8d3f
00000170: af38 4ebf 3b3a 9040 0b76 dcbe 3a23 a940
00000180: f118 2940 696a d6be 3ba9 3040 d3af fa3f
00000190: 105d 90c0 89f3 ea40 6f2c b6c0 9749 2940
000001a0: 20b2 8040 4f0a c040 bf0d 9c40 944b c0c0
000001b0: 5377 0441 1098 adc0 e80a 79c0 b6c5 913f
000001c0: 6972 8740 660f 3240 221f 09c0 31d4 1641
000001d0: ce2d a840 d459 a8c0 5871 c8c0 0e43 c5c0
000001e0: c95c 4740 b5be cec0 dfe1 883f 4e24 0dc1
000001f0: 3e7d 94c0 26d9 96c0 9ea3 d2bf 1237 653e
00000200: 122a d9c0 a40f 1abf 7119 d340 481a ea40
00000210: 041c d3c0 3ed8 e740 1a68 19bd f3ae dd40
00000220: 5412 713e ce5c 8040 2a74 7240 6607 a240
00000230: 0f07 f53f 71ed bf3f ba6b 7340 c1a4 4340
00000240: c9d1 3240 8dca 0041 0cda 46c0 7573 b83f
00000250: 2d7a 49c0 0dbf e13f cfce 4340 c32e 45c0
00000260: fbc0 ac3f 03da a4c0 a7f9 e2c0 16f2 b140
00000270: ecb6 4ac0 6838 8240 1ea9 9840 840b ab40
00000280: 29cc 9d40 7ce7 bbc0 5a0a 2fc0 fbe8 6640
00000290: 9bba 05c0 ac73 de40 4e30 b6c0 1f23 b2c0
000002a0: 1667 f2bd c539 9640 3b92 ddbf 6a9a 0bc0
000002b0: eaa5 9fc0 71fd 40c0 bcc3 2cc0 b052 da3f
000002c0: e1c3 cfc0 92fd 3ec0 4f93 8d40 8226 9940
000002d0: c735 0fc0 a040 11bf 419b 913f 6c7a 71c0
000002e0: 72bf 6dc0 6fba 7d40 ae95 6840 bd00 9040
000002f0: 2d80 b03f dfa8 52c0 d26c 8cc0 1912 d7c0
00000300: 14f2 683f a8f7 d73f a5df 9640 0682 8fc0
00000310: 3ff1 cdc0 0397 6a40 a08a c23f 508c 7ac0
00000320: 8189 c440 ded3 b940 a600 9d40 558e adbe
00000330: 0c05 e6bf a80e 5240 0010 083d b79c 88c0
00000340: f01f 1440 56eb aa40 8dc1 c2c0 8f40 6740
00000350: 12cf 1940 caa9 d1bf ebf1 6c40 3c48 b9c0
00000360: de9c cdc0 92b5 1040 c27e 9840 e920 fc3f
00000370: 25ac 8ac0 f35b b83f baa1 1140 7eef 1fc0
00000380: c9cc 78c0 a2af 30bf da93 083f 0aea 5240
00000390: 5719 8840 5096 5240 a85f 0c40 29ef 4d40
000003a0: ad5f c340 7925 223f 359e dc3f 74b3 c540
000003b0: 1ab7 dd3e 3d1b 9040 ca44 11bf 0308 e6c0
000003c0: 7f43 9840 5a0e 72c0 3a98 c6bf 5352 a0c0
000003d0: 0458 8340 ae3b d140 2da6 1cc0 7635 fc3e
000003e0: 109c e640 56bc b23f d5b9 6a40 30a2 a13f
000003f0: 8578 fcc0 ec86 00c0 74c3 d4bf 0099 93c0
7.1815786 1.2221239 -5.038563 -2.9361067 -4.4035687 7.6741376 0.7314417 0.86796135
4.111819 -5.319033 -4.1837196 -3.819707 1.4767976 0.21267997 -6.535275 -2.602225
7.9651403 -1.7291363 2.1822321 5.0718513 -3.5143945 4.492481 -3.7868545 -3.6769192
5.441632 3.001798 -3.00327 -0.625294 1.1029778 6.531531 1.0594474 -2.4125402
0.10913362 3.4077241 4.600203 7.7106915 -2.5633147 -2.878428 -2.7465992 2.2186782
4.187223 -4.658409 2.2350163 -1.8390726 5.844504 5.2535815 -0.9173264 -0.5631151
5.630366 -7.466389 -4.8631907 0.5808281 0.60553515 -4.4818816 2.197653 1.0569311
-0.64090496 -2.4911087 1.197783 6.018883 -4.2350016 -0.6736858 0.49565825 7.598193
3.456143 -1.5786642 3.1335807 1.1492583 -3.3047943 6.0513935 0.20945595 1.2922622
-4.674475 3.378255 -6.877013 -2.0959022 7.9052567 2.6175594 6.2315392 4.728018
-1.0602974 -1.235728 -2.3419435 0.33906633 8.402098 4.560076 -5.636469 0.22611216
0.07832809 -5.6731114 1.8996476 1.107408 -0.8055524 4.507108 -0.4305881 5.28555
2.6421473 -0.4187806 2.760329 1.9584907 -4.51136 7.3422284 -5.692924 2.6451166
4.021744 6.0012584 4.876678 -6.009226 8.279132 -5.4248123 -3.8912907 1.1388462
4.232716 2.7821898 -2.1425252 9.426805 5.2555914 -5.2609653 -6.263836 -6.1644354
3.1150382 -6.4607797 1.069393 -8.821363 -4.6402884 -4.7140074 -1.6456182 0.22384289
-6.7863855 -0.60180116 6.5968556 7.315708 -6.59717 7.2451468 -0.037452795 6.927606
0.23542148 4.0113287 3.78834 5.063403 1.9142779 1.4994336 3.80345 3.0569308
2.7940543 8.049451 -3.1070585 1.4410235 -3.148082 1.7636429 3.0594976 -3.080979
1.3496393 -5.1516128 -7.092975 5.5608015 -3.1674147 4.0693855 4.770644 5.3451557
4.931172 -5.8720074 -2.7350068 3.60797 -2.0895145 6.95162 -5.6933966 -5.5667872
-0.11836068 4.694552 -1.7310251 -2.1812997 -4.989003 -3.0154688 -2.6994467 1.7056484
-6.492661 -2.9842267 4.424232 4.7859507 -2.2376573 -0.56739235 1.1375505 -3.773097
-3.71481 3.964504 3.6341357 4.50009 1.3789116 -3.291557 -4.3882837 -6.720959
0.9099438 1.6872454 4.7148004 -4.484622 -6.435699 3.665467 1.5198555 -3.914814
6.141785 5.8071127 4.906329 -0.33897653 -1.797029 3.2821445 0.033218384 -4.26913
2.3144493 5.3412275 -6.086127 3.6133153 2.4032636 -1.637994 3.7022655 -5.7900677
-6.425399 2.2610822 4.7654734 1.9697543 -4.3335137 1.4403061 2.275496 -2.4989924
-3.887499 -0.69017994 0.53350604 3.2955346 4.2530932 3.2904243 2.1933384 3.2177222
6.105429 0.6333843 1.7235781 6.178156 0.43303758 4.503325 -0.5674559 -7.188478
4.7582393 -3.782126 -1.5515206 -5.0100493 4.104494 6.538535 -2.4476426 0.49259537
7.2065506 1.3963726 3.6675923 1.2627621 -7.889712 -2.008235 -1.6622148 -4.6124268

fc2.weight f4 [200, 256, 1, 1, 1]
00000000: 5758 9840 7386 7fbf 2ac5 3fc0 7753 80bf
00000010: 5da4 a13e b72c 9dbe 3a0d 40c0 ddb1 813e
00000020: d5fe a4bf 0579 6640 729c 5e3f fc2d a93f
00000030: dfb3 113f 9e2e 8140 016d 4d40 c8f6 16c0
00000040: dce3 3140 0303 cbbf b52e b23f 84be d2bf
00000050: fb6e 63be c4bd 753f bdfd 1dc0 59ec 2f40
00000060: 65ad 823f 1e25 80bf 7fd9 edbd 12d3 803f
00000070: 3bfa 2140 da32 2840 9a6d 80bf efee 09bf
00000080: 80dd 0a40 56d3 3a40 5470 933f 0cf2 d1bf
00000090: 378d 80bf be87 0ebf b2fa e43f 8d39 5a3f
000000a0: 36f2 f13f 7ae1 5e3f e17b 523f bd70 14bf
000000b0: f2de 17c0 390f 4bc0 ab26 06bf 7411 1bbf
000000c0: ded7 a63f c1b2 0dc0 cb38 00c0 440b fcbe
000000d0: 12c5 47bf bbe4 833f 9cd4 f0be 93d6 833f
000000e0: 1ef2 d7be 2642 ddbf e070 1340 6bc1 0b40
000000f0: 9c46 66bf 0317 1740 0f28 803f 85db 84bf
00000100: 6af4 8dc0 c191 ddbf a802 8440 e88d 3840
00000110: e77b 2840 d0f0 58bf 19ae 8640 3119 af3f
00000120: 5d3f d5bf 3c79 0940 5a56 38bf 7a86 0d3f
00000130: 0322 7f3f 2ab6 2a3f ce81 23be ecbc 78bf
00000140: 82ba 1340 d1e5 90bf f293 e2bd aed8 1240
00000150: 63ba 3440 d3a5 3340 9c72 4940 c12e 83bf
00000160: f910 15c0 2696 a6bf daf1 0840 38cb 5340
00000170: 8d4f d63f 53f1 5440 2108 4f3e da6d 83bf
00000180: de6c 5fbf a0af 76be 6b93 b3bf 335c cd3e
00000190: 92ab 4ebf 51c6 92bf 0f82 1140 6869 72bf
000001a0: d57b 7f40 7ad8 28c0 a8f9 24c0 eb5d 3c40
000001b0: f8cb 103e 0253 3b40 c86f ea3f 819d 4040
000001c0: adae 3ac0 ea6b 763f 2ce1 86bf 9987 a13e
000001d0: 53f3 ce3e f2a3 e1bf 5bf9 2b40 3af4 afbf
000001e0: 3778 8340 84f5 6a3f 89b0 0fbf 37e6 d03f
000001f0: 69d1 5540 7523 ccbf 9161 2ac0 979f 5040
00000200: 0c5e 9cbe 1d90 44bf a3be 7f3f 49a4 f03f
00000210: 2ee5 acbf 2a0f 7f3f b974 0740 db60 803c
00000220: 1340 893f c501 f0bf 724e 7abf 5009 0d3f
00000230: 5bfb 5640 caff bb3e d1c0 bd3f 1192 773f
00000240: 4661 d0be c7f4 b7bf 66ee 1340 3c03 073f
00000250: 06dd 3240 e5be 4d3f 0207 813f e8dd 3e40
00000260: 9a4c bb3f f764 c3be 8813 3f40 6c53 7f3f
00000270: b7dc 78bf 2773 9d3f 1482 8d40 2355 5a40
00000280: 39a7 d8bf a52a 7f3f 1d58 efbf b8a7 813f
00000290: f01e 3f40 e77c 4a40 d629 75bf a338 633f
000002a0: 5315 0540 f74d 2840 9e54 8cbf c072 823f
000002b0: 6184 1bc0 40f1 4040 1c26 f9bf bf2b 8f3f
000002c0: db45 0540 7c1c cb3e f1d3 2240 60ad 0bc0
000002d0: 1a6f b5bd 2318 7ebf c1cf e33f 1b11 4840
000002e0: 3438 a7be 050f a43f 7b35 803f 172b 1d40
000002f0: 8830 1c3e 9521 5ebf fd93 89bf b538 4040
00000300: aa99 4040 13e3 9c3f ce4d 4ebe 6643 80bf
00000310: b3b0 7abf 2eb7 4440 f061 1640 b6f0 a73f
00000320: 60ab 5f3e 2406 fdbf 148b 723f a380 8ac0
00000330: aa2a 1c40 0cca f5bf 0518 2740 59fc 83c0
00000340: 7547 3e3f 0e3b 75bf a46c f3bf e96b c0bf
00000350: 77de 6cbf aefb 45bf ae6a 0cc0 fc37 7dbf
00000360: 05fc 9f40 fdbc 93bf b132 40c0 0783 eabf
00000370: 9e20 76bf b095 91bf 69d7 ec3f 5696 8a3d
00000380: 9374 1d3f 7569 1c3f 82e3 71bf 86b7 09c0
00000390: 05b7 7d3f 7823 883e 4b43 f9bf 894a 823e
000003a0: 198f 7ebf cd47 83bf 329b 7fbf 1866 9fc0
000003b0: 86db 8fbf 68d7 5940 87b0 80bf 5d88 80bf
000003c0: 0ff2 f23f fe76 a73e 247e 13c0 833b ba3f
000003d0: c3f7 6abf 04d6 99c0 0b01 7b40 13a5 b43f
000003e0: f3fa 3f40 bb8c 3e40 81f8 fdbf 367b 203e
000003f0: 8944 5abf 9797 3cbf de3d 803f 5bb0 b13e
4.7607837 -0.9981453 -2.996409 -1.0025471 0.31570712 -0.30698177 -3.0008073 0.2533101
-1.2890269 3.6011364 0.86957467 1.3217158 0.56915087 4.0369406 3.209778 -2.3588123
2.7795324 -1.5860294 1.3920504 -1.6464391 -0.22210304 0.95992684 -2.468612 2.7488005
1.0209166 -1.0011327 -0.1161375 1.0064414 2.5308979 2.6281037 -1.0033448 -0.5388021
2.1697693 2.919149 1.1518655 -1.6401992 -1.0043095 -0.55675876 1.7889006 0.85244066
1.8902042 0.870628 0.82220274 -0.57984525 -2.3729825 -3.172804 -0.5240275 -0.60573506
1.3034627 -2.2140353 -2.0034664 -0.49227345 -0.7803508 1.0304178 -0.47037208 1.0299858
-0.42176908 -1.7285812 2.3037643 2.1836803 -0.8995149 2.3607795 1.0012225 -1.0379492
-4.4360857 -1.7310106 4.1253242 2.8836613 2.6325624 -0.8474245 4.208752 1.3679563
-1.6659962 2.1480246 -0.7200676 0.5528332 0.9966127 0.6668421 -0.15967485 -0.9716327
2.3082585 -1.1320134 -0.110633746 2.294475 2.8238761 2.806996 3.1476202 -1.0248643
-2.329161 -1.3014572 2.1397614 3.3092785 1.6743027 3.3272293 0.20217945 -1.0267899
-0.87275493 -0.24090433 -1.4029363 0.40109405 -0.80730546 -1.1466771 2.2735631 -0.9469209
3.991933 -2.6382127 -2.5777378 2.9432323 0.14140308 2.9269414 1.8315363 3.0096133
-2.9169114 0.96258414 -1.0537467 0.31548765 0.40420017 -1.7628157 2.6870944 -1.3746407
4.1084247 0.9178088 -0.56128746 1.6320256 3.3409064 -1.5948321 -2.662205 3.2597406
-0.30540502 -0.767824 0.99900264 1.8800136 -1.350744 0.99632514 2.1164992 0.015671184
1.0722679 -1.875054 -0.9777595 0.55092335 3.3590915 0.3671859 1.4824468 0.96707255
-0.40699214 -1.4371575 2.3114257 0.5273931 2.7947402 0.80369407 1.0080264 2.982294
1.4632752 -0.38162968 2.985567 0.99736667 -0.97211784 1.2300767 4.4221287 3.4114463
-1.6926032 0.99674445 -1.8698765 1.0129309 2.9862633 3.1638734 -0.9576696 0.88758296
2.0794265 2.6297586 -1.0963323 1.0191269 -2.4299548 3.0147247 -1.9464755 1.1185225
2.0823886 0.3967017 2.5441859 -2.182457 -0.088590816 -0.9925558 1.7797776 3.126044
-0.32660067 1.2817084 1.0016321 2.455755 0.15252888 -0.8676999 -1.0748287 3.0034611
3.009379 1.2256798 -0.20146868 -1.0020568 -0.9792587 3.0736804 2.3497276 1.3120334
0.21842718 -1.9767499 0.94743466 -4.3282027 2.440104 -1.9202285 2.610841 -4.124554
0.74327785 -0.95793235 -1.901753 -1.5032932 -0.92526954 -0.7733716 -2.1940112 -0.9891355
4.999514 -1.154205 -3.003094 -1.8321236 -0.9614352 -1.1373806 1.8503238 0.067669556
0.61506003 0.61098415 -0.94487774 -2.1518264 0.9910739 0.2658956 -1.9473661 0.2544749
-0.994371 -1.0256287 -0.99846184 -4.9812126 -1.1238868 3.4037724 -1.0053872 -1.0041615
1.898012 0.3270797 -2.304574 1.4549412 -0.91784304 -4.807375 3.9219387 1.4112877
2.9996917 2.9773395 -1.9841462 0.15672001 -0.85260826 -0.7366881 1.001888 0.3470486
